best_model.pth (torch, 89717 bytes, 13 tensors)

network.0.weight f4 [64, 2]
0.04739984 0.3832198 0.6103481 0.10439444 -0.5353895 0.5371066 -0.32093254 -0.688523
0.20767039 -0.33211267 0.24041782 -0.3703074 0.564269 -0.39449072 0.29195732 0.33656394
0.15638864 0.55604863 0.41526943 0.24600114 -0.5906474 -0.40443435 0.65991336 0.56912136
-0.109982595 -0.46441367 -0.40960068 0.37873983 0.34741557 0.17223266 -0.121770605 -0.12081419
0.23108204 -0.6586953 -0.26347545 0.43601066 0.5587633 0.3208203 0.27615666 0.32510078
-0.2643006 -0.38725838 -0.3969383 -0.5865641 -0.6881769 0.23602189 0.026231915 0.20133203
0.7305067 -0.3112796 0.58417124 -0.4327919 -0.2968404 0.055007722 -0.36379498 0.014313187
-0.68495417 -0.030338068 -0.40723544 -0.5709782 -0.5461945 -0.62471384 -0.51093245 0.6191024
0.22837427 -0.05953659 0.1839877 -0.19989 -0.5616263 0.6290536 -0.054601893 -0.658045
-0.0076567624 0.016266776 0.029778283 -0.654176 0.576754 -0.09957626 0.6592485 0.6991313
0.33166042 0.13698977 0.43873504 -0.32436085 -0.73855174 -0.032320965 -0.38567552 -0.57256365
0.5944162 0.40283155 -0.39170367 0.30175623 -0.5107996 -0.19653694 -0.24115887 -0.5555106
0.15586437 -0.64226806 0.13544147 0.34498155 0.09795539 -0.6721106 -0.3534313 -0.6160488
0.6690066 -0.039034043 -0.62625545 0.782613 0.52586114 -0.6552418 0.41400632 -0.106228545
-0.035562564 0.29253876 -0.094975136 -0.26332673 0.38141742 0.5497895 -0.1750896 0.6156103
-0.51083887 -0.44366166 -0.13559827 -0.10989139 0.2588995 -0.25465742 -0.6021075 0.473807
00000000: 5626 423d 6335 c43e c63f 1c3f c1cc d53d
00000010: 490f 09bf d17f 093f 4551 a4be 0b43 30bf
00000020: 8ca7 543e ac0a aabe 1730 763e ee98 bdbe
00000030: ef73 103f b0fa c9be 6e7b 953e 1c52 ac3e
00000040: 5824 203e 3459 0e3f 329e d43e b9e7 7b3e
00000050: ab34 17bf 0512 cfbe 15f0 283f f0b1 113f
00000060: 8e3e e1bd a1c7 edbe 2eb7 d1be 30ea c13e
00000070: 74e0 b13e c25d 303e de62 f9bd 6e6d f7bd
00000080: c5a0 6c3e 41a0 28bf 41e6 86be ca3c df3e
00000090: 1d0b 0f3f 8f42 a43e 6864 8d3e 9c73 a63e
000000a0: 6952 87be bb46 c6be 7f3b cbbe 1129 16bf
000000b0: 5c2c 30bf b9af 713e 50e4 d63c fc29 4e3e
000000c0: 7d02 3b3f 0a60 9fbe 3f8c 153f e696 ddbe
000000d0: 77fb 97be c74f 613d 5643 babe dc81 6a3c
000000e0: 2859 2fbf 8a87 f8bc 2a81 d0be a12b 12bf
000000f0: 67d3 0bbf 3fed 1fbf 78cc 02bf 7f7d 1e3f
00000100: f2da 693e a4dc 73bd 4667 3c3e f7af 4cbe
00000110: bec6 0fbf a809 213f 3ca6 5fbd a375 28bf
00000120: 94e5 fabb e741 853c 96f1 f33c 1478 27bf
00000130: 26a6 133f a3ee cbbd 82c4 283f 45fa 323f
00000140: 65cf a93e 0c47 0c3e e1a1 e03e a012 a6be
00000150: ba11 3dbf fd62 04bd 4377 c5be 8893 12bf
00000160: a92b 183f f03f ce3e 628d c8be cb7f 9a3e
00000170: c3c3 02bf fb40 49be 5af2 76be f135 0ebf
00000180: e99a 1f3e ae6b 24bf 2bb1 0a3e 6ca1 b03e
00000190: d69c c83d 710f 2cbf f3f4 b4be 60b5 1dbf
000001a0: 0444 2b3f 29e2 1fbd 4752 20bf 5359 483f
000001b0: d69e 063f edbd 27bf a3f8 d33e 5a8e d9bd
000001c0: 0daa 11bd a4c7 953e 5382 c2bd c3d2 86be
000001d0: 2549 c33e 01bf 0c3f b04a 33be a398 1d3f
000001e0: 56c6 02bf 9f27 e3be 46da 0abe bd0e e1bd
000001f0: 7a8e 843e 7562 82be b823 1abf d596 f23e

network.0.bias f4 [64]
0.3720695 0.3532118 0.07124071 -0.22079462 0.12403078 0.45742896 0.15598658 -0.47521195
0.5211375 0.23271403 -0.32981995 0.015011337 -0.13818422 -0.43519387 -0.27151403 -0.16499466
-0.4363436 -0.18731257 -0.19042096 -0.30965906 -0.60132605 0.5197315 -0.52803814 0.19471371
0.51864487 -0.30864355 -0.038909435 0.4084368 -0.2959507 0.5186747 -0.4249238 -0.44306362
0.48811764 -0.0075149876 -0.022983344 -0.46576878 -0.065213725 0.53193283 0.010998903 -0.08581611
0.64781827 -0.22194242 -0.3197117 -0.13310747 0.4272967 0.44002137 -0.17473173 -0.29041108
-0.12939824 -0.47036746 0.40740886 0.58724415 -0.58841443 -0.5725593 0.43933886 0.02950251
0.0038878934 0.24622 -0.7502013 -0.5502269 -0.563965 0.6404962 0.55675167 0.69211125
00000000: e57f be3e 2dd8 b43e a6e6 913d fc17 62be
00000010: d903 fe3d 2134 ea3e f2ba 1f3e fb4e f3be
00000020: 4469 053f 964c 6e3e 29de a8be 1cf2 753c
00000030: 2a80 0dbe bbd1 debe e303 8bbe 5cf4 28be
00000040: 6e68 dfbe dece 3fbe b6fd 42be a28b 9ebe
00000050: 81f0 19bf 200d 053f 822d 07bf 0863 473e
00000060: e9c5 043f 8706 9ebe 805f 1fbd a11e d13e
00000070: da86 97be ddc7 043f 9d8f d9be 3cd9 e2be
00000080: 8eea f93e 4940 f6bb 9147 bcbc 3f79 eebe
00000090: c68e 85bd c02c 083f be34 343c 5bc0 afbd
000000a0: 6bd7 253f e044 63be 40b1 a3be 534d 08be
000000b0: a2c6 da3e 7b4a e13e e0ec 32be c3b0 94be
000000c0: f980 04be 01d4 f0be e597 d03e a255 163f
000000d0: 54a2 16bf 3f93 12bf 06f1 e03e 3faf f13c
000000e0: 07cc 7e3b 1821 7c3e 310d 40bf acdb 0cbf
000000f0: 0360 10bf 8ff7 233f 4787 0e3f 342e 313f

network.2.weight f4 [64, 64]
-0.116811216 0.1328133 -0.018271927 -0.053859804 0.0015533154 0.06413742 0.07725191 0.10595296
0.021253385 -0.08881671 -0.050811984 0.090663664 0.14448443 0.23155011 0.089718625 0.061821382
0.13018747 0.14699219 0.067065366 -0.04676638 0.34898174 0.0013011296 0.0574856 0.052608006
0.13459471 0.05288545 0.06944671 -0.09903697 0.06257977 0.0050643287 0.10433442 0.22897093
-0.1438018 -0.053051416 0.11172818 0.14468625 -0.025171353 0.058570158 0.13834319 0.049621336
0.07484457 0.036062572 0.20663166 0.09887615 -0.11865251 0.028112637 0.0138194 0.17317106
0.16728781 0.19144173 0.06863913 -0.12780097 0.22352304 0.21925329 0.097928 0.15127529
0.10833945 0.010082359 0.10120743 0.27453458 0.061762992 -0.0802264 -0.08195373 0.03580747
-7.245945e-39 -1.2261692e-38 1.3073215e-15 1.3886621e-13 3.758494e-14 5.1218622e-14 -4.5044963e-16 3.2719103e-38
-8.632946e-38 -4.808709e-38 1.1597829e-13 1.9023109e-38 7.076217e-14 4.2084462e-38 -6.1649823e-38 2.0863922e-14
-2.3400729e-14 8.439897e-39 5.984109e-38 -9.398187e-39 3.8682853e-14 -1.25887e-10 -9.375748e-15 -5.065027e-38
3.6665426e-15 -3.062378e-38 2.626776e-14 4.29056e-14 3.1612425e-14 3.5793087e-12 1.2940198e-13 -1.284604e-38
1.9062341e-14 4.2373433e-15 2.243602e-38 -3.7063007e-14 4.2030423e-38 -2.496538e-12 -3.7176246e-38 -3.5906642e-38
1.7862335e-16 1.5396931e-38 -5.910675e-14 1.00802796e-13 2.2275983e-38 2.6690647e-14 5.1164713e-14 -3.7527358e-14
3.9906036e-14 1.4059815e-38 -7.908242e-14 2.593952e-10 6.107872e-38 -6.758314e-38 5.1219974e-14 8.439068e-39
-3.3588956e-38 4.938283e-14 5.152777e-38 3.526928e-39 -7.653683e-14 -1.1258322e-12 3.569578e-14 -1.0577326e-11
0.021455046 -0.08255025 0.106971316 -0.11818307 -0.06416842 -0.32408175 -0.13744235 0.16365342
0.1177213 -0.09456806 -0.10315851 0.00610578 -0.011827928 0.28073353 0.11199488 -0.002426952
-1.8486905e-38 0.14017005 0.014073573 0.09675662 5.14519e-38 0.066729784 0.008367623 -0.008997638
-0.13069698 0.049169414 0.122507386 -0.022750443 0.1661225 -0.11227025 -0.06898147 0.09263828
-0.01590467 -0.046155773 0.050669067 4.653352e-38 0.0021714086 -0.18370093 0.03262381 -0.04786647
0.080928564 -0.21163668 0.20129894 -0.027453486 0.093923844 0.009548852 -0.037164953 0.026899723
1.0000247e-38 0.3383665 -0.22407901 -0.08465944 0.13129354 0.08117467 -0.09833459 -0.070822075
0.08382055 -0.07282768 0.051777307 0.34381557 -0.14954503 -0.06582062 -0.07955395 -0.01231996
0.090684935 -0.09264349 0.11670127 -0.20518354 -1.8082039e-06 -0.28811637 -0.1331989 0.086373955
0.13352056 -0.04372905 -0.1458512 -0.05498841 -0.07873928 0.32950327 0.033423405 -0.10330421
-2.549232e-38 0.13555788 -0.1268649 -0.20750873 -5.5012926e-38 -0.20237893 0.107309155 -0.06601748
-0.22010754 -4.9556505e-38 -0.035075214 0.105724655 0.15910473 -0.03387326 -0.21790288 0.04870464
-0.09514442 -8.511174e-08 0.04601649 -1.6310063e-38 0.000115982926 -0.0464152 -0.028810225 -0.086478606
-0.08474777 6.0756204e-38 0.029766459 -0.30388686 -0.16123177 0.027052986 0.07312006 -0.03599891
7.05384e-14 0.08104636 -0.10712957 -0.060978193 -0.039531127 0.24216022 -0.1340424 0.03677864
-0.08006111 -0.218647 0.0031506054 0.10036814 -0.15656093 0.039819594 -0.05170771 0.07712574
00000000: b83a efbd 3600 083e 02af 95bc 199c 5cbd
00000010: 9e98 cb3a 7b5a 833d 4036 9e3d defd d83d
00000020: 941b ae3c 89e5 b5bd 3a20 50bd dfad b93d
00000030: baf3 133e 791b 6d3e 66be b73d 6b38 7d3d
00000040: dd4f 053e 1f85 163e 9159 893d 1b8e 3fbd
00000050: bcad b23e aa8a aa3a 0576 6b3d 7e7b 573d
00000060: 32d3 093e 6a9e 583d 143a 8e3d e5d3 cabd
00000070: d329 803d abf2 a53b 49ad d53d 5b77 6a3e
00000080: c740 13be 714c 59bd bed1 e43d a228 143e
00000090: 2734 cebc 43e7 6f3d d6a9 0d3e be3f 4b3d
000000a0: 1c48 993d 59b6 133d 4097 533e 947f ca3d
000000b0: 1600 f3bd 794c e63c c46a 623c c153 313e
000000c0: 7f4d 2b3e 4d09 443e ac92 8c3d 42de 02be
000000d0: 39e3 643e ef83 603e 7a8e c83d e9e7 1a3e
000000e0: 13e1 dd3d 7b30 253c d745 cf3d cc8f 8c3e
000000f0: 31fb 7c3d bd4d a4bd 5bd7 a7bd dbaa 123d
00000100: bfe6 4e80 9c84 8580 a667 bc26 7659 1c2a
00000110: 7c44 2929 0dab 6629 51d5 01a6 c623 3201
00000120: da02 eb81 d0e7 8281 7794 022a b024 cf00
00000130: 9d57 9f29 2e21 6501 a8d3 a781 eeec bb28
00000140: 68c6 d2a8 00e7 5b00 27e7 a201 5256 6680
00000150: 4b36 2e29 0a6a 0aaf 02e6 28a8 16e2 8981
00000160: e319 8427 52bb 2681 5599 ec28 ca3a 4129
00000170: a55e 0e29 18df 7b2c 95b1 112a 88e1 8b80
00000180: c4b2 ab28 98aa 9827 7f4e f400 bdea 26a9
00000190: dcd5 6401 a1ad 2fac 2068 4a81 8e7e 4381
000001a0: 4ff0 4d25 61a8 a700 b918 85a9 dbfc e229
000001b0: 6190 f200 7168 f028 e66c 6629 1902 29a9
000001c0: 87b8 3329 0b19 9900 e913 b2a9 a19a 8e2f
000001d0: a845 a601 93fa b781 9cac 6629 b0e4 5b00
000001e0: 2ce0 3681 8766 5e29 9d45 8c01 a467 2600
000001f0: 7b58 aca9 6172 9eab 6fc2 2029 0b14 3aad
00000200: 7ec2 af3c 1b10 a9bd c713 db3d f709 f2bd
00000210: bc6a 83bd 0bee a5be b0bd 0cbe c394 273e
00000220: dd17 f13d e6ac c1bd c544 d3bd ff12 c83b
00000230: edc9 41bc 4ebc 8f3e 925d e53d 7f0d 1fbb
00000240: f84d c980 bd88 0f3e d894 663c 5628 c63d
00000250: be10 8c01 a0a9 883d 5b18 093c d46a 13bc
00000260: 6ed5 05be de65 493d 27e5 fa3d 235f babc
00000270: 041c 2a3e f2ed e5bd 2846 8dbd 23b9 bd3d
00000280: 834a 82bc d60d 3dbd 5e8a 4f3d 435a 7d01
00000290: 314e 0e3b 191c 3cbe 8ba0 053d a20f 44bd
000002a0: e0bd a53d 49b7 58be 4f21 4e3e 22e6 e0bc
000002b0: 255b c03d ca72 1c3c 473a 18bd cf5c dc3c
000002c0: 9fe4 6c00 603e ad3e f874 65be ee61 adbd
000002d0: d071 063e e83e a63d a563 c9bd 2a0b 91bd
000002e0: 1caa ab3d ae26 95bd 7114 543d 9808 b03e
000002f0: 5522 19be f6cc 86bd 2eed a2bd a8d9 49bc
00000300: 06b9 b93d dfbb bdbd 1301 ef3d a21b 52be
00000310: 6ab1 f2b5 fd83 93be 4b65 08be d4e4 b03d
00000320: 9db9 083e 3b1d 33bd 045a 15be 873b 61bd
00000330: 0f42 a1bd a7b4 a83e fbe6 083d 2891 d3bd
00000340: 1ccb 0a81 afcf 0a3e dfe8 01be 2b7d 54be
00000350: 6ac2 9581 6c3c 4fbe e7c4 db3d 2c34 87bd
00000360: df63 61be d8e7 8681 07ab 0fbd 2b86 d83d
00000370: 5aec 223e b0be 0abd ef21 5fbe 847e 473d
00000380: 14db c2bd adc6 b6b3 c97b 3c3d d299 b180
00000390: dc3b f338 dd1d 3ebd 6c03 ecbc b21b b1bd
000003a0: 3d90 adbd e564 a501 cad8 f33c 0f97 9bbe
000003b0: f119 25be 399e dd3c f8bf 953d 9873 13bd
000003c0: 9ed6 9e29 a2fb a53d bf66 dbbd 45c4 79bd
000003d0: 64eb 21bd d9f8 773e 6942 09be 33a5 163d
000003e0: 14f7 a3bd 00e5 5fbe 637a 4e3b d08d cd3d
000003f0: 8251 20be df19 233d 77cb 53bd 1af4 9d3d

network.2.bias f4 [64]
-0.1620925 -2.698088e-10 -0.08709225 -0.09768204 -0.029811379 0.037515603 -0.076327756 -0.082666546
-0.12373717 -0.11109577 -0.08773859 -0.11734152 -0.17036079 -0.14040332 -0.062074825 -0.025787463
0.06447556 -0.0519268 -0.0057410467 0.091898866 0.10715357 0.11619525 -0.009233303 -0.003347632
0.06104539 0.08162634 -0.0055100317 -0.087812096 -0.04540212 -0.068181396 -0.027039677 0.034835286
0.12743068 -0.013175621 -0.0627944 0.04429964 -0.04822202 -0.01994888 -0.07351389 0.19692576
-0.11775703 0.04890598 -0.048881076 -0.10247879 -0.027163815 -0.1542118 -0.17299443 0.099058434
-0.010487733 0.0918389 -0.024098285 0.10177898 -0.009795429 0.17903818 0.13525136 -0.152518
-0.021791697 -0.15107566 0.07992123 0.009001357 0.009090148 -0.030405197 0.1447813 0.09757176
00000000: 94fb 25be 3654 94af 6c5d b2bd 850d c8bd
00000010: fe36 f4bc f6a9 193d ba51 9cbd 144d a9bd
00000020: ea69 fdbd 2e86 e3bd 4ab0 b3bd c050 f0bd
00000030: 0f73 2ebe e3c5 0fbe 2c42 7ebd 3b40 d3bc
00000040: c30b 843d 32b1 54bd 641f bcbb 7935 bc3d
00000050: 5573 db3d c6f7 ed3d 4847 17bc f263 5bbb
00000060: bb0a 7a3d b62b a73d 7f8d b4bb d4d6 b3bd
00000070: 93f7 39bd b0a2 8bbd 5082 ddbc 72af 0e3d
00000080: 307d 023e 8fde 57bc 5a9a 80bd 8a73 353d
00000090: 7484 45bd d56b a3bc 738e 96bd e8a6 493e
000000a0: 992a f1bd a351 483d 8637 48bd 66e0 d1bd
000000b0: a686 debc b3e9 1dbe 7425 31be 26df ca3d
000000c0: bed4 2bbc 0916 bc3d c469 c5bc 7f71 d03d
000000d0: 027d 20bc c955 373e 557f 0a3e ae2d 1cbe
000000e0: 8084 b2bc 94b3 1abe bead a33d 6d7a 133c
000000f0: d8ee 143c 5214 f9bc 8d41 143e b4d3 c73d

network.4.weight f4 [64, 64]
0.072084144 -1.3014745e-13 0.02520763 0.011041807 0.0027524927 0.020255651 -0.10702264 -0.0033996152
-0.015645405 -0.013733769 0.1279822 0.08110833 -0.016710015 -0.092688635 -0.04755928 -0.012341374
-0.04089225 -0.0014058104 -0.03481821 -0.036390014 0.08471089 -0.07595058 2.8074723e-05 0.01564965
0.06715161 -0.011772758 -0.084352344 -0.0680106 0.08027803 0.043621443 0.012760239 0.08812505
-0.07482962 0.017535128 -0.1093958 0.017848574 0.0863309 -4.0279386e-21 0.12969242 -0.043203745
-0.0733524 -0.14948215 0.021006094 0.084421545 -0.044525374 -0.056214686 0.12849656 0.030228484
0.024171524 0.060719345 -5.296729e-17 0.025796123 -0.064075634 -0.013544625 -0.14789633 0.048136026
0.009113809 0.022669725 0.04496371 0.018319389 0.0045888247 -0.016329287 -0.009501523 -0.09523267
0.02327993 6.90061e-14 0.09184586 0.13511153 0.0118018165 0.113677934 0.18858449 0.032640975
0.09340437 -0.031326104 0.05811959 -0.10682897 0.11913255 -0.023520282 -0.075924344 0.0031721487
0.13467823 -0.0038307589 -0.00912638 0.00493761 0.042557616 0.02146697 0.00060985173 -0.0018052077
-0.09770494 -0.092181936 0.008709058 0.15744735 0.007900512 0.022972777 -0.016496276 0.18250203
-0.14516664 0.098881446 0.057780918 0.1333728 0.12610506 -1.9068887e-12 -0.11297109 -0.235124
0.022165166 -0.077913016 0.0828027 -0.030031815 -0.107310854 0.03220572 0.096097335 0.042995084
0.107317284 0.0611646 -0.014365603 -0.074260935 0.04636306 -0.019734811 -0.081502475 0.06738658
-0.0035965275 -0.0063955644 0.058387328 -0.06211655 0.014333385 -0.022411272 0.041607033 -0.11157489
0.08471219 9.588868e-14 0.15523511 0.279358 -0.0062116673 -0.06551034 0.0899394 0.06718306
-0.026501719 0.1357689 -0.032067005 -0.1072654 0.0045813546 0.07220127 0.074117474 0.0019706758
0.16580683 -0.005172312 0.04026634 0.053295046 -0.00055212865 -0.021067347 0.002710854 0.006704695
0.0953197 -0.071442254 -0.011975469 0.112367384 -0.03497808 0.11143455 -0.020951154 0.084508575
-0.084285945 0.07052317 -0.010401174 0.11961044 0.08672391 -1.7165988e-08 0.0074725943 -0.23561308
0.1749938 -0.14256173 0.2577258 0.058273543 0.081930734 0.18086119 -0.048939455 0.16795565
0.065330446 -0.021838414 -0.01956178 -0.017048668 -0.028745964 -0.14093737 -0.09569987 0.08491228
-0.008521551 -0.0051464383 -0.08887224 -0.038664535 0.040744405 -0.024383599 -0.024485137 -0.0034605386
-0.0032925953 5.982426e-38 0.0022160525 -0.0028852643 -6.023568e-38 -0.010253515 -0.004814118 -0.00017926436
0.0011878747 0.0025049264 -0.0004314973 0.003538621 6.3745656e-06 -0.00029358242 -0.0024908525 1.5501528e-38
-0.0012638977 5.348984e-38 0.0017215348 8.92827e-06 -0.0025163225 -0.0031463106 -5.663959e-38 -4.4664643e-38
0.0028144226 0.00012074351 -0.000118131225 -0.0014356921 -0.0031870685 0.0020327063 4.21547e-18 -0.0014883745
0.0035988207 -0.0012277318 0.00053478265 0.00016567462 -0.0013222421 5.990016e-38 0.0016221764 -0.0030081733
-0.0005105687 -0.0013953724 -0.0033902663 -0.0022058433 -0.0031183 0.0040701907 -0.001013045 -0.0060602333
-0.0038616217 0.0013554401 -1.8900198e-38 -0.0065127816 0.00014143634 -0.0014460207 -0.0029882432 -0.0036793514
1.2608211e-38 -0.001482674 0.00056764326 9.6852906e-05 2.3266574e-38 -4.382498e-38 5.6820474e-05 -8.2435625e-05
00000000: daa0 933d 7388 12aa 3b80 ce3c b2e8 343c
00000010: 2a63 343b 2eef a53c b02e dbbd 14cc 5ebb
00000020: cb2a 80bc 9a03 61bc c40d 033e 201c a63d
00000030: 71e3 88bc 8ad3 bdbd 85cd 42bd 7933 4abc
00000040: a27e 27bd 2b43 b8ba 8a9d 0ebd b20d 15bd
00000050: e77c ad3d fa8b 9bbd 0282 eb37 b233 803c
00000060: c986 893d 87e2 40bc ecc0 acbd 2449 8bbd
00000070: cf68 a43d 66ac 323d 5210 513c e87a b43d
00000080: 4640 99bd d4a5 8f3c e80a e0bd 2c37 923c
00000090: 41ce b03d d52b 989d 17ce 043e 69f6 30bd
000000a0: c839 96bd d911 19be f914 ac3c 34e5 ac3d
000000b0: 3d60 36bd 5f41 66bd 9a94 033e baa1 f73c
000000c0: 5c03 c63c d9b4 783d bd44 74a4 6452 d33c
000000d0: 163a 83bd 46ea 5dbc 2372 17be 482a 453d
000000e0: 1652 153c dcb5 b93c de2b 383d 8b12 963c
000000f0: da5d 963b ffc4 85bc 47ac 1bbc 5909 c3bd
00000100: 8db5 be3c 4f63 9b29 af19 bc3d ad5a 0a3e
00000110: 685c 413c facf e83d 4b1c 413e 8bb2 053d
00000120: ca4a bf3d cd4f 00bd cf0e 6e3d 26c9 dabd
00000130: c4fb f33d 9bad c0bc 397e 9bbd d3e3 4f3b
00000140: 17e9 093e 780d 7bbb d086 15bc adcb a13b
00000150: e550 2e3d 80db af3c 75de 1f3a b89c ecba
00000160: 8719 c8bd e2c9 bcbd 70b0 0e3c e139 213e
00000170: 2671 013c 6831 bc3c 3323 87bc d0e1 3a3e
00000180: 90a6 14be 5b82 ca3d afab 6c3d e192 083e
00000190: af21 013e 742f 06ac 635d e7bd 59c4 70be
000001a0: b993 b53c dc90 9fbd 7694 a93d 4805 f6bc
000001b0: cbc5 dbbd 25ea 033d aece c43d 9d1b 303d
000001c0: 2ac9 db3d bb87 7a3d b55d 6bbc 1e16 98bd
000001d0: 31e7 3d3d e6aa a1bc c5ea a6bd fa01 8a3d
000001e0: b8b3 6bbb e291 d1bb 8d27 6f3d ec6d 7ebd
000001f0: 93d6 6a3c d897 b7bc 236c 2a3d 6081 e4bd
00000200: 967d ad3d 10ec d729 f4f5 1e3e 0308 8f3e
00000210: 3e8b cbbb 492a 86bd 2632 b83d 4697 893d
00000220: 221a d9bc 0107 0b3e b158 03bd f6ad dbbd
00000230: 301f 963b 42de 933d e7ca 973d 7426 013b
00000240: 44c9 293e 7f7c a9bb 51ee 243d e84b 5a3d
00000250: babc 10ba 6e95 acbc 95a8 313b 0fb3 db3b
00000260: fa36 c33d 5150 92bd c234 44bc df20 e63d
00000270: 2d45 0fbd cc37 e43d c1a1 abbc d512 ad3d
00000280: 1c9e acbd 746e 903d b069 2abc 52f6 f43d
00000290: 4e9c b13d 6874 93b2 aadc f43b 8e44 71be
000002a0: 9331 333e b4fb 11be a3f4 833e 3db0 6e3d
000002b0: 4dcb a73d ad33 393e bd74 48bd 91fc 2b3e
000002c0: f8cb 853d 79e6 b2bc 0740 a0bc a6a9 8bbc
000002d0: a87c ebbc e351 10be 4bfe c3bd 7de6 ad3d
000002e0: fa9d 0bbc 74a3 a8bb a602 b6bd b45e 1ebd
000002f0: 9be3 263d 1dc0 c7bc 0e95 c8bc 34ca 62bb
00000300: 95c8 57bb 6ddb a201 313b 113b b416 3dbb
00000310: 24fa a381 5cfe 27bc c0bf 9dbb e9f8 3bb9
00000320: 76b2 9b3a b129 243b 963a e2b9 35e8 673b
00000330: 1ae5 d536 f7eb 99b9 923d 23bb f4cb a800
00000340: 5fa9 a5ba fa9c 9101 1fa5 e13a a1ca 1537
00000350: e3e8 24bb 5532 4ebb 0930 9a81 6d2d 7381
00000360: 2d72 383b ae37 fd38 38bd f7b8 d52d bcba
00000370: 23de 50bb 2737 053b fd85 9b22 9015 c3ba
00000380: 31da 6b3b d8eb a0ba a830 0c3a f1b8 2d39
00000390: 154f adba 5210 a301 359f d43a c624 45bb
000003a0: afd7 05ba eee4 b6ba 3b2f 5ebb e98f 10bb
000003b0: 655c 4cbb 3c5f 853b 26c8 84ba ec94 c6bb
000003c0: 4313 7dbb 06a9 b13a 10ce cd80 2c69 d5bb
000003d0: 874e 1439 6788 bdba 67d6 43bb 4621 71bb
000003e0: 904a 8900 4956 c2ba e5cd 143a 821d cb38
000003f0: be59 fd00 1b9b 6e81 8552 6e38 4ae1 acb8

network.4.bias f4 [64]
-0.09862852 -0.028952606 0.0011770816 -0.0015012155 0.022570202 -0.06877466 0.07717422 -0.10765961
0.1617563 0.18652594 0.054000404 0.052843757 -0.007435979 -0.001780164 -0.028975742 -2.9039732e-10
0.10557967 0.016911607 0.011978374 -0.123467416 -0.0015766732 0.14322712 -0.10147468 -0.044366725
0.16171892 -0.07603601 -0.039650038 -0.0005525913 -0.08390141 0.037360206 -0.043517075 -0.002526729
0.2081891 0.13613483 -6.7469e-05 -1.27171234e-26 0.04573016 -0.019959161 -0.062011763 -0.07666734
-0.064850174 -2.996933e-20 0.07755632 0.10457223 -0.01523731 -0.057213653 -0.057645954 -1.0954919e-09
-0.106602505 -0.006997672 0.14439751 -0.008153849 0.015982976 -0.014301123 -0.025132503 -0.038313363
0.0069512436 0.1302534 0.1387762 -0.016075233 -0.0007775174 -0.017265355 0.16721971 -0.042321797
00000000: c0fd c9bd 042e edbc 4e48 9a3a 6fc4 c4ba
00000010: 25e5 b83c bbd9 8cbd 840d 9e3d a47c dcbd
00000020: 72a3 253e a800 3f3e 872f 5d3d b272 583d
00000030: 83a9 f3bb 6454 e9ba 895e edbc caa5 9faf
00000040: 273a d83d 368a 8a3c f140 443c 7cdc fcbd
00000050: 60a8 ceba 21aa 123e f5d1 cfbd e2b9 35bd
00000060: a599 253e c5b8 9bbd 1468 22bd c6db 10ba
00000070: 81d4 abbd 0407 193d f63e 32bd 7a97 25bb
00000080: 862f 553e ee66 0b3e 257e 8db8 7ae3 7b94
00000090: 8c4f 3b3d 6581 a3bc 0c00 7ebd c403 9dbd
000000a0: 2bd0 84bd b286 0d9f d9d5 9e3d f729 d63d
000000b0: e9a5 79bc dd58 6abd 2a1e 6cbd 3290 96b0
000000c0: 6a52 dabd ba4c e5bb f1dc 133e b997 05bc
000000d0: bbee 823c 424f 6abc aee2 cdbc 79ee 1cbd
000000e0: 42c7 e33b 2661 053e 591b 0e3e 35b0 83bc
000000f0: 4fd2 4bba 1370 8dbc a53b 2b3e 9f59 2dbd

network.6.weight f4 [64, 64]
0.06886127 0.060500175 0.017552089 0.0028972575 0.12085838 0.17072152 0.03773012 0.08747361
-0.15027927 0.11184842 -0.025553806 0.16651922 -0.044683393 -4.2487856e-05 0.057701714 -1.620325e-38
-0.15797272 -0.0020664178 -0.018729977 0.00851002 -0.077921234 0.050702 0.00759023 -0.0036309164
-0.006791974 0.14478692 0.0058964104 -5.396481e-10 0.03460286 -0.0012220842 0.034870084 0.0033924952
-0.088160515 0.006333907 0.027533317 2.6873872e-38 0.018980097 0.04405783 0.02702927 0.06079678
0.14854884 -5.171392e-38 -0.12663235 0.11707436 -0.06914576 0.02775667 -0.06381665 5.621174e-38
0.06308012 0.114192225 -0.09561591 -0.03711799 0.1700429 0.04213402 0.13005842 0.054642398
0.15652493 -0.0061903605 -0.028592288 -0.06202011 -1.2529182e-10 0.11034694 -0.22346334 -0.008208295
-0.014324523 -0.012458002 0.047502857 0.001406325 -0.03211881 0.056650598 0.03049068 0.12118428
-0.0686794 0.04181699 0.018751873 0.12135862 0.013601629 -0.000102759936 0.017841015 -6.6071974e-38
-0.014039426 0.0036866758 0.11052211 0.000103809645 -0.044054598 -0.017731074 0.0060734926 0.02606775
-0.015523588 0.12914248 0.032345112 -4.7163965e-13 0.014199187 0.054780915 0.048297256 0.002186085
-0.12539046 -0.0065815127 0.052465715 -2.6856748e-38 0.0064704707 0.05096056 0.10494845 -0.00096184446
0.122224085 -3.2502776e-38 -0.0052263183 0.016975224 -0.05405728 -0.017610956 -0.003007045 3.9732257e-38
-0.040850952 0.058151208 -0.061529104 0.096737035 0.032905288 -0.01593556 0.11692696 -0.05055887
-0.020887103 -0.0633763 -0.08596427 0.10937703 -4.7984677e-14 0.12761676 -0.111420244 -0.044512764
-0.0017627353 -0.04751297 -0.10884074 0.001491086 0.06029367 0.009381378 -0.053337183 -0.10459927
0.04537483 -0.048761908 -0.023931596 -0.053364404 -0.027105425 0.00021340013 -0.14113146 3.4703386e-38
0.03420552 -0.0015695381 -0.07429169 0.11058214 -0.054274876 0.14290386 -0.008790132 0.049640633
0.08186337 0.01692125 0.05231473 6.056391e-39 -0.02404762 0.099087544 0.034546155 0.005936125
0.044600323 0.15491912 -0.038049992 -9.064975e-39 0.1577434 0.053429052 0.06259244 -0.0768946
0.025042651 -1.6743354e-38 0.017143106 -0.0086546345 -0.040139224 0.058900315 -0.041482832 2.1726209e-38
-0.17773579 -0.15489832 0.08697258 -0.064106345 -0.07934552 -0.10443451 -0.053307537 -0.14120074
-0.03887241 0.11027524 0.1154037 0.047051713 4.2017643e-13 -0.01644979 0.0112303225 0.0028175944
-0.10713545 -0.14420722 -0.022010127 -0.004241833 0.034121215 -0.048889123 -0.062315166 0.024316996
0.10842772 -0.05798355 0.089518115 -0.11889344 -0.08385143 -0.0007544906 -0.13555709 -6.7761564e-38
0.1391509 -0.026870063 -0.020492354 0.0065634423 -0.030654633 0.14563784 -0.0055526104 -0.004706677
0.053243037 -0.16033807 -0.016725501 2.143474e-07 -0.007661436 0.004328621 -0.073971875 -0.0012561566
0.114048265 0.04751069 0.121903256 5.7558794e-38 0.048047714 -0.01961599 -0.05391302 -0.026871856
0.07919969 -5.985505e-39 0.1370481 -0.05252134 0.034520995 0.054945394 0.058676288 6.978893e-38
-0.03115023 0.05082567 0.11119225 0.085777596 0.031961408 -0.06454378 -0.027756654 -0.09516198
-0.113577664 0.025776953 0.15389122 -0.021559346 2.0410647e-07 -0.1421367 0.07252806 -0.018858783
00000000: 2307 8d3d 08cf 773d 66c9 8f3c eadf 3d3b
00000010: 9984 f73d 9fd1 2e3e e68a 1a3d 5d25 b33d
00000020: cfe2 19be c910 e53d 3756 d1bc 0484 2a3e
00000030: ef05 37bd fd34 32b8 a258 6c3d 1270 b080
00000040: 9ac3 21be bd6c 07bb 9c6f 99bc 9c6d 0b3c
00000050: 2b95 9fbd e6ac 4f3d 77b7 f83b abf4 6dbb
00000060: 358f debb 0643 143e ad36 c13b 5c56 14b0
00000070: bbbb 0d3d 572e a0ba efd3 0e3d a054 5e3b
00000080: 808d b4bd aa8c cf3b 8d8d e13c b650 1201
00000090: 267c 9b3c fc75 343d 7d6c dd3c 0b06 793d
000000a0: 301d 183e 58c7 8c81 e9ab 01be afc4 ef3d
000000b0: 4b9c 8dbd f561 e33c 4eb2 82bd de05 9901
000000c0: 2630 813d 9ddd e93d 46d2 c3bd 0909 18bd
000000d0: ba1f 2e3e b994 2c3d 092e 053e b5d0 5f3d
000000e0: 1248 203e 82d8 cabb 603a eabc cd08 7ebd
000000f0: 83c2 09af 94fd e13d 93d3 64be 167c 06bc
00000100: 67b1 6abc a61c 4cbc 5b92 423d 7054 b83a
00000110: 038f 03bd 750a 683d 97c7 f93c 772f f83d
00000120: c9a7 8cbd 4b48 2b3d 879d 993c de8a f83d
00000130: 5ed9 5e3c d280 d7b8 5227 923c 72dd b381
00000140: 9f05 66bc 289c 713b 6a59 e23d 61b4 d938
00000150: 9872 34bd c240 91bc 2604 c73b 098c d53c
00000160: a656 7ebc ed3d 043e 4f7c 043d 38c1 04ab
00000170: b5a3 683c f461 603d 58d3 453d 6c44 0f3b
00000180: 5b66 00be bba9 d7bb 4ae6 563d d838 1281
00000190: 3e06 d43b 05bc 503d 37ef d63d 4a24 7cba
000001a0: 9f50 fa3d 42f6 3081 8941 abbb a00f 8b3c
000001b0: 2b6b 5dbd da44 90bc d811 45bb af52 5801
000001c0: 5453 27bd f62f 6e3d f105 7cbd 111e c63d
000001d0: b2c7 063d 4b8b 82bc 6777 ef3d d116 4fbd
000001e0: 6e1b abbc 6fcb 81bd 090e b0bd 1001 e03d
000001f0: 911a 58a9 f8ad 023e 4c30 e4bd 0453 36bd
00000200: 950b e7ba f69c 42bd e5e7 debd 8b70 c33a
00000210: 7ff6 763d 5ab4 193c 1778 5abd 2438 d6bd
00000220: f5da 393d 91ba 47bd 320c c4bc a294 5abd
00000230: 320c debc 29c4 5f39 c484 10be 76f1 3c01
00000240: 161b 0c3d f6b8 cdba 3e26 98bd e478 e23d
00000250: 554f 5ebd 6455 123e 7c04 10bc fa53 4b3d
00000260: fca7 a73d 6f9e 8a3c f847 563d c1f2 4100
00000270: 84ff c4bc 69ee ca3d 4580 0d3d d383 c23b
00000280: d4ae 363d 1ea3 1e3e 4fda 1bbd 76b5 6280
00000290: 7c87 213e 6cd8 5a3d 7730 803d eb7a 9dbd
000002a0: 3f26 cd3c a951 b680 b36f 8c3c 2bcc 0dbc
000002b0: 0769 24bd 7541 713d e7e9 29bd d593 ec00
000002c0: 5f00 36be aa9d 1ebe ae1e b23d 304a 83bd
000002d0: e77f a2bd c3e1 d5bd 0159 5abd ed96 10be
000002e0: ad38 1fbd fcd7 e13d c658 ec3d 4cb9 403d
000002f0: ce89 ec2a b6c1 86bc 63ff 373c 64a7 383b
00000300: d569 dbbd 0fab 13be 954e b4bc 13ff 8abb
00000310: b0c2 0b3d f63f 48bd 303e 7fbd 7034 c73c
00000320: 5a0f de3d 2980 6dbd 4655 b73d 677e f3bd
00000330: 4cba abbd 02c9 45ba 7acf 0abe eb76 b881
00000340: 937d 0e3e 9b1e dcbc 95df a7bc 2512 d73b
00000350: 6d1f fbbc 1622 153e acf2 b5bb 783a 9abb
00000360: 5f15 5a3d aa2f 24be eb03 89bc 5d27 6634
00000370: c90c fbbb 1bd7 8d3b 917e 97bd 9fa5 a4ba
00000380: 2392 e93d 929a 423d 6aa8 f93d a0b0 9c01
00000390: aecd 443d b6b1 a0bc e6d3 5cbd 5e22 dcbc
000003a0: 7233 a23d 272d 4180 5656 0c3e 9e20 57bd
000003b0: e365 0d3d 6c0e 613d 8c56 703d c9fb bd01
000003c0: c42e ffbc 942e 503d c3b8 e33d 2aac af3d
000003d0: f7e9 023d 882f 84bd ec61 e3bc 49e4 c2bd
000003e0: 689b e8bd 302a d33c a995 1d3e 3a9d b0bc
000003f0: 5c28 5b34 488c 11be 9789 943d bc7d 9abc

network.6.bias f4 [64]
-0.13310425 -0.047573682 0.051687326 0.16330668 0.0870438 -1.4018044e-05 0.22542915 -0.041869756
-0.10192218 0.13147457 0.051311865 0.09061223 0.090537556 0.20046979 0.018187642 -4.008141e-13
0.05010408 -0.0026121407 0.06946682 -0.023737837 -0.039792757 0.14525145 0.077373646 -1.6311002e-05
0.17812596 0.0686484 0.05923773 -0.057436563 0.17243725 0.1209842 -0.054745212 0.028601125
-0.1040708 -0.040247176 -0.0052335956 -0.046570566 0.1151388 -0.065028995 0.102276854 -0.009052587
-0.038214333 0.096064486 -0.14541388 0.13137013 0.025525847 -0.023881944 -2.1229048e-06 -0.00010837102
0.20636573 0.061837297 0.12044956 -0.007007672 0.11947456 0.14890273 -0.0010243449 -0.029623954
0.12067732 0.07986198 0.020007363 -0.0026964254 -2.8215503e-11 0.039835945 0.028972628 -0.013788692
00000000: 7b4c 08be 9fdc 42bd 17b6 533d de39 273e
00000010: 0544 b23d 0a2f 6bb7 e6d6 663e 9f7f 2bbd
00000020: 93bc d0bd 45a1 063e 642c 523d e892 b93d
00000030: c16b b93d f447 4d3e 40fe 943c 66a3 e1aa
00000040: f039 4d3d 7330 2bbb 9f44 8e3d da75 c2bc
00000050: bbfd 22bd ccbc 143e 1376 9e3d 9cd3 88b7
00000060: a766 363e 8897 8c3d 43a3 723d 9a42 6bbd
00000070: 6493 303e 90c6 f73d 843c 60bd e84c ea3c
00000080: 1223 d5bd 39da 24bd 957e abbb c7c0 3ebd
00000090: e4cd eb3d ec2d 85bd 8776 d13d 4d51 14bc
000000a0: a286 1cbd 75bd c43d 60e7 14be e485 063e
000000b0: 951b d13c 11a4 c3bc 3a77 0eb6 4045 e3b8
000000c0: 8a51 533e 1b49 7d3d 42ae f63d 9da0 e5bb
000000d0: 14af f43d f579 183e 5043 86ba efad f2bc
000000e0: ac25 f73d ae8e a33d 7be6 a33c 83b6 30bb
000000f0: aa2f f8ad 042b 233d 0158 ed3c f7e9 61bc

network.8.weight f4 [64, 64]
-0.086675055 0.069183946 0.12916514 -0.0041236365 -0.07890268 8.278926e-39 0.12856737 0.005164687
-0.027524851 0.1251404 0.03363295 0.04998482 0.03885892 0.14472654 0.113311835 3.3833993e-38
0.10216851 1.8504473e-06 -0.005933461 -0.051224764 -0.10354884 0.1638545 0.05122715 3.0139145e-08
-0.005337431 0.0077139353 0.10122098 -0.036539547 0.00742787 0.06914976 -0.055100404 0.14447595
-0.01260478 0.04309935 -3.3812686e-08 0.15490177 0.09202097 0.03640888 0.13348824 0.045372803
-0.059488527 -0.10348831 0.06273945 0.050933372 0.039418492 -0.016254893 2.9507573e-22 6.0252426e-38
-0.044440772 0.066239364 0.06827088 -0.00034471264 0.07985355 0.0684426 -8.873429e-20 0.001502114
-0.03862107 0.056792155 -0.034654073 -1.25766195e-17 6.024261e-38 0.085781276 0.00012706255 -5.8720566e-38
-0.012912317 -0.0017809509 0.008079721 -0.09831324 0.0020348146 8.315011e-39 0.00017083627 0.012844698
0.045415454 -0.031364597 0.016011547 0.0013445382 0.0068916157 -0.01435272 -0.015439221 -7.121874e-39
0.06614616 -1.7830668e-06 0.032177698 0.0771442 0.0357583 0.045852527 -0.0327181 -3.3458507e-11
-0.010050062 0.005563804 0.074290276 -0.04322368 0.07008693 -0.008830759 -0.060527336 0.03552503
0.03077398 -0.06210637 -5.631193e-06 0.023612976 0.017477877 -0.007530513 -0.07854939 0.00881879
-0.055408195 -0.031520426 -0.022215545 0.0048002345 0.012817413 0.0031267982 -2.8968755e-23 -3.7209833e-38
-0.06619003 -0.038934637 -0.012379298 0.00011828064 0.080620684 -0.022805024 3.0072516e-22 -2.7782444e-06
-0.020718757 0.005833368 0.016420972 9.925806e-22 -1.624741e-39 -0.0061390065 -1.2987418e-11 2.770087e-38
0.009880006 0.010429955 0.07291319 -0.03468642 -0.051030163 -1.1204205e-37 -0.007195451 0.0642952
0.0321233 -0.033640254 0.09910357 0.093577355 0.12035842 -0.12447902 0.09187586 5.2858323e-38
0.07943213 -0.00038140753 -0.020373758 0.114258945 0.10168084 -0.09057924 -0.036132347 1.7862612e-07
-0.058447983 0.0014260693 0.024388403 0.11353463 0.030434478 0.05093784 0.102602616 0.015478077
-0.0016008412 0.06876513 -0.00022940744 0.11144776 -0.08496584 -0.0565221 -0.068021305 -0.044302072
-0.03783676 0.050144438 0.07892734 0.13338608 0.14152719 -0.014099097 3.265201e-22 -5.578636e-39
0.0106306225 -0.0151335355 -0.045427997 0.0025698633 0.08112789 -0.045633696 6.4270105e-09 -0.0060627763
-0.0833413 0.025578786 0.0019269399 8.916131e-09 -2.0295849e-38 -0.020549504 -2.0291656e-05 -2.332866e-38
0.13566615 0.03079378 0.16544506 0.0313141 0.033502214 1.5275865e-16 0.13545987 0.081003875
-0.043214563 -0.106059864 0.115201496 0.11030002 0.14371787 -0.12311858 0.12875405 3.3441018e-38
0.09699206 -0.00084131054 0.091995016 0.119465664 0.13322297 -0.0997786 0.040223066 3.4967138e-07
-0.049971677 0.012421165 0.16940287 0.13568944 0.011846113 0.086807296 0.02600488 0.03985051
-0.015561828 0.05930354 -0.00095840293 0.06519405 0.08813852 0.075931475 -0.058950387 0.10229968
0.029367756 -0.047918905 0.087798916 0.10473314 0.09052031 -0.008282157 -5.2881605e-22 -1.9511039e-16
-0.016144954 -0.124524064 -0.068636805 0.0031515711 0.10538914 0.031505466 8.9978194e-08 -0.006767866
-0.022367923 0.016414028 0.047626913 1.8121918e-08 5.903136e-38 0.03664727 -7.891891e-05 1.7554239e-22
00000000: b182 b1bd 50b0 8d3d de43 043e 921f 87bb
00000010: ba97 a1bd 4726 5a00 2aa7 033e 893c a93b
00000020: cc7b e1bc ce24 003e b4c2 093d e2bc 4c3d
00000030: 882a 1f3d 3233 143e 0910 e83d b435 3801
00000040: b93d d13d e35c f835 7a6d c2bb 0fd1 51bd
00000050: 6a11 d4bd 79c9 273e 8fd3 513d 5772 0133
00000060: 9ee5 aebb 2ec5 fc3b f24c cf3d 7eaa 15bd
00000070: 7d65 f33b 649e 8d3d f6b0 61bd 81f1 133e
00000080: 4784 4ebc f288 303d 7139 11b3 929e 1e3e
00000090: 7e75 bc3d 7a21 153d 24b1 083e d5d8 393d
000000a0: 3eaa 73bd aef1 d3bd 8a7d 803d 839f 503d
000000b0: 4975 213d fb28 85bc c25c b21b d005 a401
000000c0: 8707 36bd 81a8 873d 9ad1 8b3d 8cba b4b9
000000d0: 428a a33d a22b 8c3d 9684 d19f 95e2 c43a
000000e0: 2131 1ebd e49e 683d 6ef1 0dbd 68ff 67a3
000000f0: f9fe a301 18ae af3d 183c 0539 43da 9f81
00000100: 2f8e 53bc cc6e e9ba ce60 043c 7458 c9bd
00000110: 865a 053b de8a 5a00 8322 3339 9172 523c
00000120: 8e05 3a3d 2a78 00bd a62a 833c 373b b03a
00000130: 10d3 e13b ac27 6bbc c9f4 7cbc e38c 4d80
00000140: a377 873d b551 efb5 c3cc 033d c7fd 9d3d
00000150: 4c77 123d dccf 3b3d 6a03 06bd ee26 13ae
00000160: 04a9 24bc 9250 b63b 8025 983d 500b 31bd
00000170: bd89 8f3d e3ae 10bc 83eb 77bd b282 113d
00000180: b719 fc3c 4063 7ebd 94f3 bcb6 0070 c13c
00000190: c42d 8f3c 86c2 f6bb 81de a0bd b07c 103c
000001a0: b4f3 62bd 901b 01bd 60fd b5bc 494b 9d3b
000001b0: 2000 523c f8ea 4c3b 9515 0c9a f096 4a81
000001c0: a38e 87bd ed79 1fbd 8ad2 4abc 6f0d f838
000001d0: 751c a53d 9ad1 babc f7c6 b51b e071 3ab6
000001e0: 62ba a9bc d625 bf3b 4685 863c 9afe 951c
000001f0: 1eb1 1180 b829 c9bb 227a 64ad 61d1 1601
00000200: c0df 213c 67e2 2a3c 8353 953d 5913 0ebd
00000210: 0105 51bd f580 1882 d1c7 ebbb 34ad 833d
00000220: b993 033d 5dca 09bd d0f6 ca3d 7ca5 bf3d
00000230: 7a7e f63d dbee febd 6929 bc3d e0e4 8f01
00000240: 50ad a23d a7f7 c7b9 dee6 a6bc 9800 ea3d
00000250: 0b3e d03d 9c81 b9bd 83ff 13bd 60cc 3f34
00000260: 2767 6fbd f2ea ba3a 30ca c73c d884 e83d
00000270: ba51 f93c 32a4 503d 5221 d23d c397 7d3c
00000280: 51d3 d1ba bcd4 8c3d 178d 70b9 b93e e43d
00000290: 9202 aebd b883 67bd c14e 8bbd 1776 35bd
000002a0: b8fa 1abd 4164 4d3d a8a4 a13d 5c96 083e
000002b0: 81ec 103e e6ff 66bc 8a5e c51b f8be 3c80
000002c0: 102c 2e3c a6f2 77bc b512 3abd 276b 283b
000002d0: 6126 a63d 66ea 3abd 95d4 dc31 41aa c6bb
000002e0: d8ae aabd 9a8a d13c 6091 fc3a 8f2d 1932
000002f0: 9200 dd80 6f57 a8bc 0038 aab7 d006 fe80
00000300: 11ec 0a3e 3d43 fc3c 6e6a 293e 3743 003d
00000310: 9e39 093d 651e 3025 feb5 0a3e 5ce5 a53d
00000320: c101 31bd ea35 d9bd c3ee eb3d fae4 e13d
00000330: c72a 133e 9825 fcbd 1ad8 033e fa11 3601
00000340: c6a3 c63d 658b 5cba e267 bc3d 6aaa f43d
00000350: 9a6b 083e b958 ccbd f1c0 243d 78ba bb34
00000360: 1aaf 4cbd 2482 4b3c f277 2d3e 2cf2 0a3e
00000370: 3316 423c 06c8 b13d 3008 d53c 4a3a 233d
00000380: 0af7 7ebc 45e8 723d 553d 7bba 7584 853d
00000390: f881 b43d f681 9b3d f675 71bd 7f82 d13d
000003a0: a694 f03c 9d46 44bd ebcf b33d 547e d63d
000003b0: b662 b93d e2b1 07bc 29d3 1f9c 6cf2 60a5
000003c0: 6c42 84bc 7906 ffbd 7491 8cbd 978a 4e3b
000003d0: 43d6 d73d e00b 013d 093a c133 fac4 ddbb
000003e0: ef3c b7bc b676 863c 7014 433d 85aa 9b32
000003f0: dbb2 a001 731b 163d 4481 a5b8 bd37 541b

network.8.bias f4 [64]
0.20469244 -0.057706162 -0.019539239 -0.038963698 -0.052821353 0.03492527 0.02054059 0.062990054
0.111182116 -0.0016413702 0.051098034 0.15245837 0.0015911267 0.1107714 0.019168993 0.19363907
-4.7183672e-05 0.029642478 0.20725589 0.19565107 -0.008614917 -5.0826945e-38 -0.0019129467 -0.009147849
-0.010161304 0.17278539 0.013118247 0.19822063 -0.03866851 0.15987253 0.07935204 0.1623477
0.15924637 -0.037464034 0.02731443 0.17365968 0.048725214 0.08611084 0.09376169 0.0888436
-0.0038468293 -0.026531478 -0.0034773871 0.067840256 -0.029004931 0.14677843 -0.0039377087 0.1422241
0.088351265 -9.325786e-05 0.10189292 -0.06679578 0.12354687 0.0043249354 -0.06546484 0.030281384
-0.0005443041 -1.4854255e-08 -3.0749012e-25 -0.0004873491 -1.5367461e-13 -0.00057039526 0.17023021 -6.816102e-05
00000000: e59a 513e 4c5d 6cbd c110 a0bc 6698 1fbd
00000010: 345b 58bd cd0d 0f3d bd44 a83c ee00 813d
00000020: 73b3 e33d 3f23 d7ba 2c4c 513d 0c1e 1c3e
00000030: 5a8d d03a 1edc e23d 4b08 9d3c 5249 463e
00000040: 15e7 45b8 c8d4 f23c e33a 543e c158 483e
00000050: 9525 0dbc 365d 8a81 d7bb faba dce0 15bc
00000060: 997b 26bc a7ee 303e eaed 563c 59fa 4a3e
00000070: df62 1ebd a0b5 233e 5383 a23d 7a3e 263e
00000080: 7b11 233e e373 19bd 83c2 df3c d8d3 313e
00000090: 1794 473d e15a b03d 2106 c03d a2f3 b53d
000000a0: 161b 7cbb 8b58 d9bc e0e4 63bb d5ef 8a3d
000000b0: c09b edbc 164d 163e e507 81bb 32a3 113e
000000c0: 82f1 b43d 6f93 c3b8 3cad d03d 3acc 88bd
000000d0: 2406 fd3d 30b8 8d3b 6e12 86bd aa10 f83c
000000e0: a1af 0eba b431 7fb2 c153 be96 e482 ffb9
000000f0: b105 2daa 9486 15ba d450 2e3e abf1 8eb8

network.10.weight f4 [64, 64]
0.11574547 -0.030444827 -0.035429332 0.13983995 0.03334947 0.0073399046 0.01601164 -0.052307438
-0.0027954157 -2.367697e-38 0.043491557 -0.0063300985 0.15364574 -0.038646087 0.03946805 0.042059068
3.5954622e-38 0.056504715 -0.0015445754 -0.034015432 0.096655406 1.898325e-39 5.442301e-38 8.7975334e-38
0.12580414 -0.010891538 0.12183759 -0.023106636 -0.048429124 -0.11048257 0.059003606 0.069905944
-0.028165175 0.02774074 -0.012753853 0.034023937 0.16239305 0.096814156 0.07113182 0.1621145
0.060663525 0.011451229 0.00033007318 0.061775826 0.008452116 0.14591782 -0.0032606479 0.105996855
-0.08027439 2.8043305e-06 0.06613364 0.08031602 0.07614761 0.14259112 0.11672769 0.13159673
0.0031138023 1.0083875e-38 -8.99785e-40 1.9999441e-05 3.3800087e-38 1.070468e-05 0.0068565775 1.2029656e-06
0.1603903 0.0039739963 -0.07560195 -0.06369485 -0.08370718 0.053872053 0.10534114 0.1240576
0.038039856 4.573222e-39 0.013807339 0.03740198 -0.03934224 0.106577635 0.20728895 0.23564903
-3.5945778e-38 -0.0813075 0.04621458 0.021694025 0.07170122 1.7069093e-38 1.503938e-39 -3.185968e-38
0.030321728 0.047914386 -0.083601154 0.19651988 0.0125129735 0.20358644 0.06202935 0.051966615
0.15898135 0.010533918 0.20371808 0.042303145 0.052714985 0.048021264 0.042617623 -0.09503705
-0.10383587 0.111594774 0.0011069488 -0.11028334 0.04106379 -0.049185906 0.0026256207 -0.088660575
0.18669254 -3.1490433e-06 0.03508399 -0.005000327 -0.07278387 0.008314522 -0.009690479 -0.16508709
5.1375227e-06 1.2703966e-38 1.3931272e-38 -9.20767e-06 -5.702949e-38 2.9104722e-05 0.04240072 -2.8348956e-07
9.185087e-38 -2.9138903e-38 1.6460512e-38 -1.8523504e-38 -7.792356e-39 -5.101103e-38 4.325086e-23 -4.8110724e-38
-1.6686366e-38 2.074667e-39 -3.8314207e-38 5.4719247e-15 -8.887136e-39 6.6589176e-38 -9.2313204e-38 4.408627e-26
-2.2618298e-38 1.8835553e-38 -3.49573e-21 -3.9172015e-16 -4.484839e-38 -2.0947965e-38 -4.127508e-39 4.4878383e-38
-2.0897149e-38 -1.1626466e-14 6.073304e-38 9.159035e-24 -3.3838054e-38 -7.2501366e-23 -7.903864e-39 2.521362e-39
-9.561371e-18 -2.1102148e-38 -2.6250355e-23 -5.7688557e-30 -5.4015157e-38 -5.6336144e-38 -5.2047656e-27 4.3465554e-38
3.3914245e-38 -1.7237148e-38 -2.3026002e-38 3.646816e-38 -4.7637954e-38 1.993267e-39 -6.635825e-39 6.156442e-39
-1.0540728e-18 -1.2220133e-38 3.0748883e-38 -3.4093723e-38 4.7418124e-38 -5.7501503e-38 -6.5043124e-38 -1.2310875e-38
-1.6546073e-38 -5.848585e-38 2.959254e-38 4.562375e-38 -4.8255204e-38 -5.740036e-38 -6.3954766e-17 6.820647e-39
-0.073104985 -0.016900234 -0.06213005 -0.17098361 -0.03247839 -0.052276462 0.13798492 0.30823368
-0.13774152 2.158337e-38 0.014113867 0.061690796 -0.11421827 -0.04476576 0.26082882 -0.029159535
5.6559265e-38 -0.15182206 0.09546077 0.06545075 -0.05391108 -1.1738624e-38 -6.920829e-38 3.524985e-39
-0.11461603 0.1068296 -0.09727244 0.1675424 -0.06395347 0.15746403 -0.06841492 -0.17579706
0.07837244 -0.005164511 0.03557492 0.1410705 -0.15205172 -0.0037529694 0.08715961 -0.22019908
-0.14443108 -0.056769762 0.00010337501 -0.10983402 -0.044478938 -0.2092702 0.00038031684 -0.15752575
0.14186196 2.410785e-15 0.00047546436 -0.07694432 -0.00037824296 -0.17622408 -0.11267876 -0.174155
-0.0054987124 6.601868e-38 3.4067376e-38 9.1143386e-07 2.35346e-38 4.020515e-08 0.09635008 5.0059358e-12
00000000: f60b ed3d 6e67 f9bc 591e 11bd 3432 0f3e
00000010: 7499 083d 9583 f03b d82a 833c 5340 56bd
00000020: 4b33 37bb e1e8 0081 3424 323d b76c cfbb
00000030: 4f55 1d3e 5c4b 1ebd 40a9 213d 2146 2c3d
00000040: 6ec1 4301 7d71 673d 5a73 caba c453 0bbd
00000050: 45f3 c53d c2ab 1400 4d27 9401 dc7d ef01
00000060: cdd2 003e 6c72 32bc fd85 f93d 214a bdbc
00000070: 9e5d 46bd b044 e2bd c4ad 713d d92a 8f3d
00000080: a7ba e6bc 8c40 e33c 89f5 50bc af5c 0b3d
00000090: 5d4a 263e 8046 c63d 8fad 913d 5801 263e
000000a0: 517a 783d f09d 3b3c ac0d ad39 a608 7d3d
000000b0: be7a 0a3c 7b6b 153e 98b0 55bb e114 d93d
000000c0: e666 a4bd 0832 3c36 1371 873d ba7c a43d
000000d0: 47f3 9b3d 6803 123e ed0e ef3d 4bc1 063e
000000e0: ef10 4c3b becd 6d00 3ccc 0980 79c4 a737
000000f0: 7206 3801 4098 3337 24ad e03b 9575 a135
00000100: 5b3d 243e 4c38 823b 32d5 9abd 7272 82bd
00000110: ac6e abbd f1a8 5c3d 18bd d73d e911 fe3d
00000120: aecf 1b3d 48cc 3100 2d38 623c d232 193d
00000130: 5425 21bd 6045 da3d 8e43 543e fb4d 713e
00000140: 1ab5 4381 8c84 a6bd 804b 3d3d abb7 b13c
00000150: 17d8 923d b0dd b900 5e60 1000 ea75 2d81
00000160: 4665 f83c e041 443d 1537 abbd 823c 493e
00000170: 3703 4d3c f778 503e 7d12 7e3d f2da 543d
00000180: 02cc 223e 7496 2c3c 799b 503e 1046 2d3d
00000190: abeb 573d f2b1 443d d18f 2e3d c9a2 c2bd
000001a0: e7a7 d4bd cd8b e43d 0a17 913a 3bdc e1bd
000001b0: 8132 283d 2977 49bd 9b12 2c3b ad93 b5bd
000001c0: 542c 3f3e 2754 53b6 3bb4 0f3d c8d9 a3bb
000001d0: b60f 95bd a239 083c d1c4 1ebc 970c 29be
000001e0: fc62 ac36 7d55 8a00 b8b2 9700 a47a 1ab7
000001f0: c13f 9b81 ea25 f437 61ac 2d3d 8232 98b4
00000200: b70a fa01 b4a5 1e81 363d b300 feb3 c980
00000210: ebd9 5480 80dd 8a81 f925 511a 48f8 8281
00000220: cdb2 b580 5497 1600 369a 5081 9925 c527
00000230: b8c5 6080 e245 b501 ea4c fb81 fd4d 5a15
00000240: 9d4a f680 dc19 cd00 a010 849d b1cf e1a5
00000250: 882d 7481 671a e480 d0f1 2c80 5657 7401
00000260: c08c e380 9c71 51a8 c054 a501 5829 3119
00000270: 5d3b 3881 2c4c af9a c210 5680 8874 1b00
00000280: 4c60 30a3 34c8 e580 bbe0 fd99 3903 ea8e
00000290: 120b 9381 905c 9981 982e ce93 24a6 6c01
000002a0: 8fa5 3801 28b2 bb80 20bb fa80 328d 4601
000002b0: cfae 8181 6bb4 1500 fb41 4880 a809 4300
000002c0: bf8d 9ba1 c210 8580 b069 2701 b79f 3981
000002d0: 9c15 8101 b388 9c81 7110 b181 b60d 8680
000002e0: b82b b480 b036 9f81 fb1d 2101 3a66 7801
000002f0: f85c 8381 3642 9c81 3b78 93a4 3045 4a00
00000300: 11b8 95bd 5c72 8abc 147c 7ebd 5416 2fbe
00000310: 0f08 05bd d81f 56bd eb4b 0d3e ced0 9d3e
00000320: 1d0c 0dbe a805 eb00 d93d 673c 7daf 7c3d
00000330: 45eb e9bd 4d5c 37bd 5b8b 853e fadf eebc
00000340: 0ef8 9901 3e77 1bbe f080 c33d 0b0b 863d
00000350: ddd1 5cbd 82d2 7f80 2467 bc81 3962 2600
00000360: cfbb eabd 7ac9 da3d c636 c7bd 3c90 2b3e
00000370: 09fa 82bd 403e 213e 1f1d 8cbd 2504 34be
00000380: bb81 a03d 0f3b a9bb 02b7 113d c974 103e
00000390: 72b3 1bbe 61f4 75bb bd80 b23d de7b 61be
000003a0: bee5 13be 6987 68bd 09cb d838 a9f0 e0bd
000003b0: 8c2f 36bd ed4a 56be 4365 c739 6e4e 21be
000003c0: 4344 113e 22b7 2d27 bf47 f939 fc94 9dbd
000003d0: e94e c6b9 1674 34be 1fc4 e6bd b055 32be
000003e0: 8b2e b4bb 4eb8 b301 fe7a 3901 42a9 7435
000003f0: 7222 0001 08ae 2c33 3153 c53d 7621 b02c

network.10.bias f4 [64]
-0.017688435 0.18295059 -3.2439227e-15 0.055119526 -1.3803863e-07 -0.039508738 0.11613897 -0.0167584
0.08767453 0.021200502 -6.0168576e-12 0.05200137 0.12728217 0.040955573 0.10220882 -3.672671e-06
-0.0018243912 0.095521644 -0.00014931872 0.12549382 0.11546787 0.15925731 -0.027429944 0.008430236
-0.0001411941 -0.0003765402 0.05674838 0.091459274 -0.068078324 0.10519136 -0.01939575 -0.0004526278
0.20059341 0.09615889 0.12519869 0.061140705 -0.020983588 -0.015006207 0.10678591 -0.00078966387
0.08030415 0.09749365 0.019136509 -0.0002789804 0.14444065 0.1798876 -9.4842946e-20 0.16633438
0.06272469 0.08008438 0.17905961 0.08853554 -6.340263e-05 0.1574027 0.13121067 0.074996494
0.118993856 0.050130002 0.15772636 -1.8136683e-07 -4.4291366e-05 -2.376296e-16 -0.09596427 0.09960569
00000000: 56e7 90bc 6657 3b3e d0bf 69a7 03c5 613d
00000010: c537 14b4 ead3 21bd 45da ed3d e948 89bc
00000020: b48e b33d adac ad3c 09b3 d3ac 63ff 543d
00000030: 4256 023e 08c1 273d dc52 d13d 0278 76b6
00000040: 6920 efba daa0 c33d 7092 1cb9 7481 003e
00000050: 6b7a ec3d 5914 233e c3b4 e0bc f91e 0a3c
00000060: 810d 14b9 5f6a c5b9 fd70 683d 004f bb3d
00000070: a66c 8bbd 916e d73d d6e3 9ebc ad4e edb9
00000080: 5c68 4d3e f4ee c43d 1634 003e ad6e 7a3d
00000090: c6e5 abbc 98dc 75bc 92b2 da3d 7201 4fba
000000a0: 8176 a43d c0aa c73d 2bc4 9c3c 1e44 92b9
000000b0: 40e8 133e 7434 383e 0bf1 df9f 8f53 2a3e
000000c0: cd75 803d 4803 a43d 675b 373e 1f52 b53d
000000d0: 07f7 84b8 2c2e 213e 175c 063e c397 993d
000000e0: 0db3 f33d 1e55 4d3d 0583 213e bcbd 42b4
000000f0: 7ec5 39b8 f0fb 88a5 ea88 c4bd 11fe cb3d

network.12.weight f4 [1, 64]
-0.14466293 0.13153818 -1.6086789e-38 0.18138723 -0.0076931906 0.08354127 0.20951334 -0.07358596
-0.057371963 -0.00010902072 2.1292779e-13 0.30934533 -0.041437306 -0.10467399 0.21951045 -0.0072735967
0.011905099 0.19333106 6.2415054e-18 -0.14157428 0.20313883 0.079953074 -0.13697985 -0.09227593
0.0073399064 9.3385826e-38 -0.06852781 -0.11846459 0.00388365 0.12421833 0.003715995 -0.0007224764
0.18538336 -0.05696523 -0.10070187 0.16232824 0.1743888 0.20201716 -0.0755529 -2.2779048e-21
0.090076305 0.101539984 -0.15300149 -0.018628037 0.2017793 0.12913036 1.0687382e-05 -0.16753918
-0.12401206 0.09475834 0.19236432 -0.12617072 -0.0041914876 -0.096033104 -0.14427206 -0.007835637
-0.16200778 -0.09435344 -0.17873642 1.6737289e-08 -0.021925662 -0.0009584559 0.21008272 0.17039408
00000000: 8522 14be f2b1 063e 6c2b af80 93bd 393e
00000010: 2917 fcbb af17 ab3d aa8a 563e 3cb4 96bd
00000020: ddfe 6abd 0ea2 e4b8 42bc 6f2a 8362 9e3e
00000030: 2aba 29bd 515f d6bd 59c7 603e 5a57 eebb
00000040: 9b0d 433c 94f8 453e 5a45 e622 d9f8 10be
00000050: a003 503e 70be a33d 7244 0cbe 2afb bcbd
00000060: 9983 f03b 6c38 fe01 4f58 8cbd 909d f2bd
00000070: d684 7e3b 2e66 fe3d 0d88 733b 9264 3dba
00000080: 23d5 3d3e 5f54 69bd c83c cebd 6039 263e
00000090: fa92 323e 96dd 4e3e 7bbb 9abd 161d 2c9d
000000a0: ed79 b83d 32f4 cf3d 6cac 1cbe d399 98bc
000000b0: 3c9f 4e3e c03a 043e f54d 3337 648f 2bbe
000000c0: 09fa fdbd a910 c23d 27fb 443e e632 01be
000000d0: bf58 89bb 01ad c4bd 0ebc 13be 0b61 00bc
000000e0: 5ee5 25be 603c c1bd ae06 37be b0c5 8f32
000000f0: 729d b3bc e340 7bba ed1f 573e c97b 2e3e
